models/neural_network.pth (torch, 2626 bytes, 2 tensors)

weight f4 [6, 3]
00000000: d701 c2be 7796 01bf 0052 90be d72a e63e
00000010: 7cfd 113d ce86 4dbf b3bd a33e 6218 5f3e
00000020: 8fb0 93bf cd2a 733e 9bd8 09be 1fbe 32bf
00000030: a246 3c3f f51e ffbe 89c7 4ebe 81ac ddbd
00000040: a364 ac3e 1566 68bd
-0.3789203 -0.50620216 -0.2818756 0.4495456 0.035642132 -0.8028382 0.31980667 0.21786645
-1.1538256 0.23746796 -0.13461535 -0.6982135 0.7354528 -0.49828306 -0.20193304 -0.10823918
0.3367053 -0.056737978

bias f4 [6]
00000000: 948b 353f f7b6 3dbd 0613 453d 967f 2d3e
00000010: 3fa9 a7be 3cb6 013e
0.70916104 -0.046317067 0.048113845 0.16943201 -0.32746312 0.12667173
